…
026gt;% layer_dense(1024) %\u0026gt;% layer_activation_relu() %\u0026gt;% layer_dense(784, activation = \u0026quot;tanh\u0026quot;) generator %\u0026gt;% compile( loss= \u0026quot;binary_crossentropy\u0026quot;, optimizer= optimizer_adam(lr= 0.0001, beta_1 = 0.5) ) return(generator) } generator \u0026lt;- create_generator() summary(generator) ## Model: \u0026quot;sequential\u0026quot; ## ___________________________________________________________________________ ## Layer (type) Output Shape Param # ## =========================================================================== ## dense (Dense) (None, 512) 51712 ## ___________________________________________________________________________ ## re_lu (ReLU) (None, 512) 0 ## ___________________________________________________________________________ ## dense_1 (Dense) (None, 512) 262656 ## ___________________________________________________________________________ ## re_lu_1 (ReLU) (None, 512) 0 ## ___________________________________________________________________________ ## dense_2 (Dense) (None, 1024) 525312 ## ___________________________________________________________________________ ## re_lu_2 (ReLU) (None, 1024) 0 ## ___________________________________________________________________________ ## dense_3 (Dense) (None, 784) 803600 ## =========================================================================== ## Total params: 1,643,280 ## Trainable params: 1,643,280 ## Non-trainable params: 0 ## ___________________________________________________________________________ Denetleyici Denetleyicimizi oluşturacak fonksiyonu yazalım.\ncreate_discriminator \u0026lt;- function(){ discriminator \u0026lt;- keras_model_sequential() d
…
 %\u0026gt;% layer_activation_relu() %\u0026gt;% layer_dense(1, activation = \u0026quot;sigmoid\u0026quot;) discriminator %\u0026gt;% compile( loss= \u0026quot;binary_crossentropy\u0026quot;, optimizer= optimizer_adam(lr= 0.0001, beta_1 = 0.5) ) return(discriminator) } discriminator \u0026lt;- create_discriminator() summary(discriminator) ## Model: \u0026quot;sequential_1\u0026quot; ## ___________________________________________________________________________ ## Layer (type) Output Shape Param # ## =========================================================================== ## dense_4 (Dense) (None, 1024) 803840 ## ___________________________________________________________________________ ## re_lu_3 (ReLU) (None, 1024) 0 ## ___________________________________________________________________________ ## dropout (Dropout) (None, 1024) 0 ## ___________________________________________________________________________ ## dense_5 (Dense) (None, 512) 524800 ## ___________________________________________________________________________ ## re_lu_4 (ReLU) (None, 512) 0 ## ___________________________________________________________________________ ## dropout_1 (Dropout) (None, 512) 0 ## ___________________________________________________________________________ ## dense_6 (Dense) (None, 256) 131328 ## ___________________________________________________________________________ ## re_lu_5 (ReLU) (None, 256) 0 ## ___________________________________________________________________________ ## dense_7 (Dense) (None, 1) 257 ## =========================================================================== ## Total params: 1,460,225 ## Trainable params: 1,460,225 ## Non-trainable params: 0 ## ___________________________________________________________________________ Ve Gan Artık gan modelimizi oluşturmaya hazırız.\ncreate_gan \u0026lt;- function(discriminator, generator){ discriminator.trainable \u0026lt;- F gan_input \
…
en() %\u0026gt;% layer_dense(512, activation = \u0026#34;relu\u0026#34;) %\u0026gt;% layer_dropout(0.5) %\u0026gt;% layer_dense(10, activation = \u0026#34;softmax\u0026#34;) Oluşturduğumuz modelin nasıl gözüktüğüne bir bakalım.\n1 2 3 4 5 6 7 8 9 10 11 12 13 14 15 16 17 18 19 20 21 22 23 24 25 26 27 28 29 30 31 32 33 34 35 str(model) ## Model ## Model: \u0026#34;sequential\u0026#34; ## ___________________________________________________________________________ ## Layer (type) Output Shape Param # ## =========================================================================== ## conv2d (Conv2D) (None, 32, 32, 32) 896 ## ___________________________________________________________________________ ## conv2d_1 (Conv2D) (None, 30, 30, 32) 9248 ## ___________________________________________________________________________ ## max_pooling2d (MaxPooling2D) (None, 15, 15, 32) 0 ## ___________________________________________________________________________ ## dropout (Dropout) (None, 15, 15, 32) 0 ## ___________________________________________________________________________ ## conv2d_2 (Conv2D) (None, 15, 15, 32) 9248 ## ___________________________________________________________________________ ## conv2d_3 (Conv2D) (None, 13, 13, 32) 9248 ## ___________________________________________________________________________ ## max_pooling2d_1 (MaxPooling2D) (None, 6, 6, 32) 0 ## ___________________________________________________________________________ ## dropout_1 (Dropout) (None, 6, 6, 32) 0 ## ___________________________________________________________________________ ## flatten (Flatten) (None, 1152) 0 ## ___________________________________________________________________________ ## dense (Dense) (None, 512) 590336 ## ___________________________________________________________________________ ## dropout_2 (Dropout) (None, 512) 0 ## ___________________________________________________________________________ ## dense_1 (Dense) (None, 10) 5130 ## =========================================================================== ## Total params: 624,106 ## Trainable params: 624,106 ## Non-trainable params: 0 ## ___________________________________________________________________________ Model Derleme Modelimizin mimarisi tamam, artık modelimizi derleye biliriz.\n1 model %\u0026gt;% compile( loss = \u0026#34;categorical_crossentropy\u0026#34;, o
…
